oracle_data/oracle_weights/rand_bytenet_model_ckpt.pth (torch, 117905 bytes, 39 tensors)

embedder.weight f4 [29, 32]
000000 f1 dc b2 be aa 76 47 be a1 1a 7c 3f 4e 0a 03 c0
       -0.3493419 -0.1947886 0.9847813 -2.047504
000010 e0 6e 96 be 91 77 95 bf ce c8 9a 3e 6f 28 5d 3e
       -0.29381466 -1.1677114 0.30231327 0.21597455
000020 33 34 83 3f 61 2b 1b bf 0f c6 48 3f 49 9e 94 bf
       1.0250305 -0.60613066 0.78427213 -1.1610805
000030 f5 49 5a 3f 95 76 f8 bd a8 a6 e4 3f b1 61 7a 3f
       0.852691 -0.12131993 1.786336 0.97805315
000040 2f ed 51 3f 44 a1 82 3d c1 64 99 3f 2b 0c bf 3f
       0.8200254 0.06378415 1.1983873 1.4925588
000050 66 18 00 40 5a 19 fb bf d5 a5 96 3f fe c3 42 bf
       2.0014892 -1.9617112 1.1769358 -0.7608031
000060 26 42 d4 3e 22 c6 f7 bf 61 11 07 40 79 ba 84 3e
       0.41456717 -1.935734 2.1104357 0.25923517
000070 ff 2a 36 be c9 af bf 3d 51 4b 51 bf 6d 43 f8 3e
       -0.17789839 0.093597 -0.8175555 0.48488942
000080 95 51 63 3e 33 10 67 3f e1 8a 58 3e 30 79 a7 3f
       0.2219909 0.90259093 0.21146728 1.3083858
000090 84 e8 06 3f 24 90 06 bf 47 ef 1f be bb 57 29 3f
       0.5269854 -0.5256369 -0.15618621 0.6614949
0000a0 e7 2f 3b 3f 78 2b 78 bf a6 5a 9c bf 3b 6c d5 3e
       0.7311997 -0.9694133 -1.2215164 0.41684136
0000b0 69 53 5d 3d ed 11 49 bf 5b c3 ea 3f b0 fd 38 bf
       0.054034624 -0.7854298 1.8340868 -0.72262096
0000c0 35 f7 10 bf 93 9c 21 3f b7 9a 4a bf 80 34 b0 bf
       -0.5662721 0.6312954 -0.79142326 -1.3766022
0000d0 9d b9 30 3f a4 56 95 3e 66 9d d5 be 9b 57 30 bf
       0.69033223 0.29167664 -0.41721648 -0.68883675
0000e0 8a 43 09 c0 e0 25 53 3f ea 52 b2 3f 6e 2c a4 3e
       -2.1447473 0.8247967 1.3931553 0.32065147
0000f0 aa 75 81 3f 0a 84 c3 be f8 e9 37 3d ff d0 64 bf
       1.0114033 -0.38186675 0.044900864 -0.893814
000100 3b e5 21 bf 31 8a cf be 4b 94 c0 3f bd d8 ba be
       -0.632404 -0.4053512 1.5045255 -0.36493483
000110 5d d1 c3 3e 6f 88 53 3f f1 0f 0f 3f 48 25 07 bf
       0.3824567 0.82630056 0.558837 -0.5279126
000120 96 55 a6 bf 54 1a 8d 3f 73 f1 03 40 a9 e7 76 bf
       -1.2994869 1.102366 2.061612 -0.96447235
000130 d8 fa 92 3f ca 1d 80 3f 7a 74 5c 3f ea e6 b4 3e
       1.1482801 1.0009091 0.8611523 0.35332423
000140 92 11 ef 3e 95 06 ee 3e e1 c7 15 3f 0c cd 84 3f
       0.46693093 0.46489397 0.58508116 1.0375075
000150 1c 98 c0 3f dd 71 1a 3e 57 88 ad 3e 58 18 ab bf
       1.504642 0.15082498 0.33893082 -1.3366804
000160 d9 fb 58 bf f5 20 a5 bf ad 9f cd 3f 65 5d e3 3e
       -0.8475929 -1.2900683 1.6064354 0.44407192
000170 da 7b b7 3c c1 0c 45 bf 38 24 a2 3f 8e 82 85 3f
       0.022397924 -0.76972586 1.2667303 1.0430467
000180 81 0f 03 3e 26 b6 0d 3e 19 c0 00 3f 0f b3 4f 3f
       0.12798883 0.13839015 0.5029312 0.81132597
000190 da 38 d2 be 68 9f 5f bf 70 ec 00 40 62 68 5a 3f
       -0.41059 -0.8735261 2.014431 0.85315526
0001a0 a9 7e b3 3f 41 50 a0 3f 59 36 04 c0 ca 20 31 3f
       1.4023029 1.2524492 -2.065817 0.6919066
0001b0 68 37 ed be 05 64 b8 be b1 a4 8a 3f d3 b2 7c bf
       -0.46331334 -0.3601381 1.083151 -0.98710364
0001c0 d0 55 1f bf 4a e6 b7 bd c6 1c 88 3e cb 65 57 3f
       -0.62240314 -0.08979471 0.26584452 0.841397
0001d0 21 92 c9 be ad 5d c3 3e e3 50 2d 3f c2 d0 7c 3e
       -0.393693 0.38157406 0.6770155 0.2468901
0001e0 a3 8d 6c 3f 03 16 5a bf 8f 69 ae 3e c3 77 a2 3d
       0.9240362 -0.8518984 0.3406491 0.07932999
0001f0 59 bf a1 3d db 91 1e 3d 1e dd 87 3e e7 77 38 bf
       0.07897825 0.038713317 0.26535887 -0.72057956
000200 2a 84 36 3f ce 1c 8c 3f 47 3d d7 3f b7 e2 34 be
       0.71295416 1.094629 1.6815575 -0.1766461
000210 f6 0d 97 3c 52 54 dc bd 9d 31 3f bd 20 a0 5d be
       0.018439274 -0.1075827 -0.046678174 -0.21643114
000220 95 27 4c 3f 0a e6 77 3e 8c 77 29 bf 8a c8 d1 3f
       0.797479 0.24208847 -0.6619804 1.6389325
000230 f8 f2 94 3e 39 10 e5 be 32 f2 9f bf 9e ec 93 3f
       0.2909162 -0.4473894 -1.2495787 1.1556585
000240 04 3d a0 bf 04 e4 d6 be 23 57 1d be e3 41 92 3f
       -1.251862 -0.41970837 -0.15365271 1.1426357
000250 28 e2 a5 be 4b 2a 7a 3f a8 84 37 3f af e7 98 bf
       -0.32399106 0.97720784 0.7168679 -1.1945704
000260 5e fc 87 3e 87 6f 0b 40 c7 78 1d be 15 f0 81 bf
       0.26559728 2.178682 -0.15378104 -1.0151392
000270 02 4c 64 3d 03 2e 0c be 1f 8e 23 bf 75 b7 c1 3f
       0.05573655 -0.13689427 -0.63888735 1.5134112
000280 de 79 ca bf 83 ff 15 bf de 3a 95 bf f4 b3 9c bf
       -1.5818441 -0.58593005 -1.165859 -1.2242417
000290 17 d4 bb 3e 4d 83 2a c0 58 54 57 bf e1 8f 79 3f
       0.3668525 -2.664264 -0.84113073 0.97485167
0002a0 8b 20 24 bf a5 3a 17 bd e1 78 79 3e 75 e6 03 bf
       -0.64112157 -0.036921162 0.24362518 -0.51523525
0002b0 3f 9d 79 3f 90 5c a0 3c cc 0d 7b bf 61 8f d0 3f
       0.97505563 0.019575387 -0.9806793 1.6293756
0002c0 59 ea 7a bf 23 a3 a2 bf 32 1b 9d be 3c 54 a8 be
       -0.98013836 -1.2706035 -0.3068481 -0.32876766
0002d0 2a c2 07 bf 30 79 cb be 24 d2 e4 bd 6d 07 14 40
       -0.53030646 -0.39740896 -0.11172894 2.3129532
0002e0 ad fe cb be 3f 3e 25 bf 7b f1 69 be 21 d9 cd 3c
       -0.3984274 -0.64548105 -0.22846024 0.02512795
0002f0 3d 96 3b bf 65 6b 0e 3e 42 45 d6 3e ce 8c 2c be
       -0.7327612 0.13908155 0.41849715 -0.16850588
000300 c1 a9 32 bf a6 93 9f bd 85 9e 9f 3e 74 d4 b9 be
       -0.69790274 -0.077918336 0.31175628 -0.362949
000310 cf 2e 02 be 6d 59 98 bd 60 29 0b 3f 3a e4 60 3f
       -0.12713169 -0.074389316 0.5436001 0.87848246
000320 9b 9f 23 bd 08 eb 41 3f 9e 4d 15 c0 d6 18 80 bf
       -0.039947134 0.75749254 -2.3328624 -1.0007579
000330 56 a1 8a bf fb 74 80 bf 19 81 ba 3f dc 07 1c 3f
       -1.0830486 -1.00357 1.4570647 0.6094949
000340 60 5b 13 bf 6c 1c bb 3f 04 f3 a5 3e e3 04 19 3d
       -0.575613 1.4618049 0.3241197 0.037358176
000350 2c fc 9c 3e 14 8c 44 3e 77 23 a3 bf 60 27 32 bf
       0.30661142 0.1919406 -1.2745198 -0.6959133
000360 8f b5 9d bf a5 b4 c4 3f cf 15 c7 3e bc 59 eb bf
       -1.2321032 1.5367628 0.38883826 -1.838676
000370 b2 5f 99 be 04 5d 46 3f ed d4 a6 bd 7c 5e e2 be
       -0.29955822 0.7748568 -0.08146081 -0.4421271
000380 87 83 18 3f d9 66 60 3f 48 20 d4 3f a6 b3 56 bf
       0.59575695 0.87656933 1.6572351 -0.8386787
000390 8e bb d7 3e 9b b0 1e 3e 26 00 af bf 7d 4c 34 3f
       0.4213528 0.15497057 -1.367192 0.7042921
0003a0 e8 52 9f bf b8 6d 85 bf 23 81 98 bf 2e c6 97 bf
       -1.2447176 -1.0424109 -1.1914409 -1.1857355
0003b0 48 27 ac 3e 0c 55 38 bf c0 1a 8b 3e 84 d5 89 3f
       0.3362372 -0.7200477 0.27168846 1.0768285
0003c0 2b 58 89 3f a9 52 8f 3f d8 90 16 c0 bd b4 f0 3e
       1.0730032 1.1197101 -2.3525906 0.47012892
0003d0 c8 3c eb bf 71 a9 d3 3f 4c 7b 12 40 53 6b 83 3f
       -1.8377924 1.6536084 2.2887754 1.0267128
0003e0 72 86 52 bc a1 ff 19 c0 96 0d 9a 3f 79 fb 21 bf
       -0.012849437 -2.4062274 1.2035396 -0.6327434
0003f0 e2 1b 1d 3f a1 d0 ea bf 6f 0a 0c 3f ba 4c ae bf
       0.6137067 -1.8344918 0.5470342 -1.3617165

up_embedder.conv.weight f4 [64, 32, 1]
000000 b7 bd aa bd a0 be f3 bd 0b b4 2b 3e 27 dd 1b 3c
       -0.083369665 -0.11901593 0.167679 0.009513176
000010 e5 e1 e8 bd ac f5 9c 3d e3 ae 2f 3e 70 f2 0d 3e
       -0.11371211 0.07664046 0.17156558 0.13862014
000020 d4 b5 1c 3e 16 3f 31 3d b5 8f ca bd cf bf 16 bd
       0.15303737 0.043273054 -0.09890691 -0.036804017
000030 d8 90 64 3d a8 8b 2e be 1f 82 27 be f2 4a c5 bd
       0.055802196 -0.17045462 -0.16358231 -0.09633435
000040 88 eb 7d bc 42 9b 5e bd 53 6d b5 3d bc fe 9e 3d
       -0.01549805 -0.054347284 0.088587426 0.077634305
000050 32 81 71 bd 8d ba 12 bd 76 12 24 be db 0c b8 3d
       -0.0589611 -0.03582244 -0.16022667 0.08986827
000060 ce 6c c6 3d 1b 75 07 be b2 29 a0 3d ec 78 ff bc
       0.096887216 -0.13228266 0.07820453 -0.03118559
000070 95 42 45 3d 2a 8d 55 bd 45 ea 0f be 0e 1e fc 3c
       0.0481592 -0.052136578 -0.1405421 0.03077605
000080 6d d2 83 3d fa bf 31 bd 90 0f 0d be 18 75 0d be
       0.0643662 -0.043395974 -0.13775468 -0.13814199
000090 f8 05 3d bd 94 6b 72 3c 0a 0b f6 3d 02 33 d7 3d
       -0.04614827 0.014796156 0.12013824 0.10507776
0000a0 de 59 18 be 9c e8 cd 3d 54 57 0b be 13 ca 12 be
       -0.14878032 0.10054132 -0.13607532 -0.14334898
0000b0 d4 6a 26 3d e4 67 2b 3e 45 cf 2d bd 13 a9 2e be
       0.040629223 0.1673885 -0.042433996 -0.17056684
0000c0 31 d1 1c be 88 69 d1 bd 2b 5c d6 bd 68 55 b9 3c
       -0.15314175 -0.102252066 -0.104667984 0.022623733
0000d0 63 e4 2d 3e d7 2e a5 bc d8 f0 1a be c6 d7 fd 3c
       0.16981654 -0.020163937 -0.15130937 0.030986678
0000e0 5c 47 98 3d 37 c8 23 3e 91 91 2d 3e f1 68 78 bd
       0.07435486 0.15994345 0.1695006 -0.060646955
0000f0 1f 0c 23 be 16 5f 39 3c 49 04 2f be f5 e4 7b bd
       -0.15922593 0.011314174 -0.17091478 -0.061497647
000100 03 45 2c be 0f 4a bb 3d e4 d1 01 be f6 a2 02 3e
       -0.16823201 0.09144985 -0.12677723 0.12757477
000110 47 19 b1 3d 77 72 ac bd 8d 89 64 3d 6c 6d 64 3d
       0.086473994 -0.0842027 0.05579524 0.055768415
000120 b9 b9 57 bd b6 52 7c 3d a2 9d 1d 3e 71 05 49 3d
       -0.052667353 0.061602317 0.15392163 0.049077455
000130 aa bd 8a 3d 59 de a1 bd 26 c3 59 bd fc 11 c0 bd
       0.06774457 -0.079037376 -0.053164624 -0.0937843
000140 0b d4 b3 bd 3f a6 af bd 9d 0d 67 bd fa 36 35 3c
       -0.08780678 -0.08576631 -0.056409467 0.011060471
000150 4a a3 e9 3c 03 fa e4 3d 27 32 13 be b0 14 9f bd
       0.028520245 0.111804985 -0.143746 -0.07767618
000160 3e 1c d2 bd 71 d9 ef bd 58 43 e7 bd 8a b3 34 3e
       -0.10259293 -0.117113955 -0.11292142 0.17646614
000170 d0 57 ad 3d ed 66 1f 3e cd e9 58 3b 02 76 ff bc
       0.084640145 0.15566607 0.003309834 -0.0311842
000180 f6 32 cf 3d 01 60 ac 3d 1d 38 08 3e 76 30 52 3d
       0.10117142 0.08416749 0.13302656 0.051315747
000190 87 2f 03 3d f5 42 63 bd 24 5e 11 3e f0 90 63 bd
       0.032027747 -0.055483777 0.14196068 -0.055558145
0001a0 ed c5 07 be 10 c6 1f 3e 26 a8 20 be d4 5c 2e 3e
       -0.13259096 0.15602899 -0.15689144 0.17027599
0001b0 58 a0 c0 bc 81 0b bb 3b de c3 42 3b 5b 55 c7 bd
       -0.023513958 0.0057081585 0.0029718797 -0.09733077
0001c0 a0 25 c9 bd 21 35 4d 3d 9e 99 a0 bd 2e 5a 86 bd
       -0.098216295 0.050099496 -0.078418 -0.06560169
0001d0 c0 3c 0c 3e 7e 65 ca bd c4 5c a8 bd f6 a6 d5 3d
       0.1369505 -0.09882639 -0.08220819 0.10432236
0001e0 c3 36 1e be c5 3f 00 be ad bb 12 3d c7 cb 19 3e
       -0.15450577 -0.12524326 0.035823513 0.15019141
0001f0 a2 4e 89 3d a4 85 33 3e 21 b2 cd bd bf c9 13 bb
       0.06704451 0.17531449 -0.10043741 -0.002255067
000200 23 d7 23 be 1a 4a a2 3c 0d 90 24 be 99 dd 2b bc
       -0.16000037 0.019810725 -0.16070576 -0.010489845
000210 ef 99 cb 3d 41 0d ba 3d 34 18 73 3d d5 60 19 be
       0.0994147 0.09084559 0.059349254 -0.14978345
000220 55 c0 f2 bd 01 0e 0a 3e 17 2f 95 3d a5 49 14 be
       -0.11853091 0.13481905 0.07284372 -0.14481218
000230 71 cc 2f 3e af db dc bd 31 40 f2 bd 5c 25 c7 3d
       0.17167832 -0.10784089 -0.1182865 0.097239226
000240 06 a7 17 3e 7d d5 19 3e 62 66 16 bd c9 43 9b 3d
       0.14809808 0.15022846 -0.036718734 0.07581288
000250 77 64 e7 3d ff 65 c2 3d 9b 50 36 bd ee 1d 0a be
       0.11298459 0.094921105 -0.044510465 -0.1348798
000260 66 97 91 3d e7 43 05 3e 57 bc de bc 7d 66 e9 3d
       0.07108955 0.13014184 -0.027189417 0.11396501
000270 d8 aa 59 3c 4f 56 d9 bd 39 ad 05 be e5 22 ae bd
       0.013285361 -0.10612165 -0.1305436 -0.08502749
000280 41 78 19 3e 94 32 87 3b 25 d1 e8 3c 51 40 30 be
       0.1498728 0.0041259024 0.02842004 -0.17212035
000290 cd c8 f1 3d 63 1c 16 3e e0 a9 20 be 42 c7 1a 3c
       0.11805878 0.14659266 -0.15689802 0.009446921
0002a0 3b 05 c5 3d 04 b5 c2 3c 33 79 b8 3d e9 4f ad 3d
       0.09620138 0.023767956 0.09007492 0.08462507
0002b0 d6 d9 0a bd c2 b8 a3 3d 7e d2 68 bd 7a f2 62 bd
       -0.03389915 0.07994224 -0.056841366 -0.055407025
0002c0 ba ad b7 3d 2a aa 31 3e 53 7f 63 bd 67 c3 09 be
       0.089686826 0.17350069 -0.055541348 -0.13453446
0002d0 7c 6c 1d be 25 74 02 3d 3d 40 2c bd dd c3 64 3d
       -0.15373415 0.031849045 -0.04205345 0.055850852
0002e0 3a a3 68 3d 47 51 cd 3c be a5 d8 bc 5e d3 ee 3c
       0.05679629 0.02506317 -0.02644622 0.029153522
0002f0 4f 68 85 bd 0b 7e 28 3e 31 d0 47 bd 8c 6e d3 bb
       -0.06514036 0.16454332 -0.04878253 -0.006452387
000300 f6 ab 93 bd 66 0e 19 bd 04 d9 a0 3d ee e2 09 be
       -0.07210533 -0.037367247 0.078538924 -0.13465473
000310 c8 e0 0f be 46 e3 49 bd 62 5f 34 be 0c 36 30 be
       -0.14050591 -0.04928901 -0.1761451 -0.17208117
000320 3d 6b fa bd c4 bf 92 bd 49 67 9b bc 81 42 2f 3e
       -0.12227485 -0.07165483 -0.018970149 0.17115213
000330 19 cd da 3d 41 72 13 be 85 79 1c be 05 84 e3 3d
       0.106836505 -0.14399053 -0.15280731 0.11109165
000340 bd a2 90 3d 01 64 16 be 95 7c cc bd 8c 5a ae bd
       0.0706229 -0.14686586 -0.099847 -0.08513364
000350 6c 29 61 bd 8e 19 1a be bf 57 07 3e a8 5b 30 3e
       -0.054971144 -0.15048811 0.13217066 0.17222464
000360 b4 d1 99 bd 67 6f 44 3c 08 35 1c bd 33 38 23 3d
       -0.07510701 0.011989451 -0.038136512 0.039848518
000370 1c 81 18 3d 14 be 1e 3e 60 5a a0 bc b9 42 15 3d
       0.037232503 0.15502197 -0.019574344 0.036440585
000380 13 63 e9 3c f3 74 0e 3e 93 b6 05 be df 0e 20 3d
       0.028489625 0.139118 -0.13057928 0.039076682
000390 7a 31 56 3c 86 53 2b be 6b 31 1e bd ae 54 cb 3d
       0.01307332 -0.1673108 -0.038621347 0.09928261
0003a0 59 77 11 3e 5d 41 ca bc d0 be de bd 65 6b d4 bd
       0.14205684 -0.02468937 -0.10876238 -0.103720464
0003b0 7a ba 0b 3e 1d b3 64 3c 85 b8 af bd 77 6b 16 3d
       0.13645354 0.01395872 -0.08580116 0.03672358
0003c0 c3 1e d0 bd 28 1c 56 bd c4 f3 a2 3a 85 b5 c3 bb
       -0.10162117 -0.052272946 0.0012432267 -0.0059725665
0003d0 49 34 29 be a2 fc 26 be 41 3f 0d 3e 97 46 29 3e
       -0.16523851 -0.1630731 0.1379366 0.16530834
0003e0 c4 d8 1d 3c a9 10 91 3d 46 d6 fd bd 83 00 9f 3c
       0.0096342005 0.07083256 -0.12394385 0.019409424
0003f0 e3 78 9b bd a6 31 98 bd fc ec c3 3c aa 1f 35 bd
       -0.07591417 -0.07431345 0.023916714 -0.04421965

up_embedder.conv.bias f4 [64]
000000 94 00 da bd 5e ca 39 3d 66 0a 06 3e 9c 53 1f be
       -0.106446415 0.045359008 0.13089904 -0.15559238
000010 c3 a7 4a bd 52 c2 2e 3e 8f 49 2d bd 3f f8 bc 3d
       -0.049476396 0.17066315 -0.04230648 0.09227037
000020 ee 8d b5 bd ee dd 30 be 90 71 bc 3c ea a8 b8 3a
       -0.088649616 -0.1727216 0.02300337 0.0014088426
000030 3d 1b 15 be 3f 0d 21 3e 6b 30 28 bd 01 2d e5 bd
       -0.14561172 0.15727709 -0.0410618 -0.111902244
000040 01 1d ac bd 4c e9 ad bd ab d8 03 3e d7 7d ec bd
       -0.084039696 -0.084917635 0.12875621 -0.115474395
000050 96 0f 92 3d 17 cb 94 3c 25 09 28 3e 3c cd 9a bd
       0.07131879 0.018163247 0.16409738 -0.075586766
000060 b7 f4 29 3e 14 c7 0a 3c 72 98 f0 bd 53 39 99 3d
       0.16597258 0.0084703155 -0.11747827 0.07481637
000070 7d 45 c9 3d 72 e7 93 bb d9 59 95 bd 9c ae 01 3e
       0.09827707 -0.0045136744 -0.07292528 0.12664264
000080 61 d0 c9 3d 17 99 28 3c 42 9a 2e be 0a 04 22 3e
       0.09854198 0.010290406 -0.17051032 0.15821853
000090 2c f9 4d 3d e0 26 b4 bd 90 bd 7a 3d c1 99 2d be
       0.050286457 -0.08796477 0.061215937 -0.16953184
0000a0 50 ea 79 bb 56 bd 27 3d ba 93 66 bd 36 69 73 3d
       -0.0038134046 0.04095205 -0.056293227 0.05942651
0000b0 0c ba 76 bc 1c 80 61 3c c2 77 e9 bd 03 b8 98 3d
       -0.0150590055 0.013763454 -0.11399795 0.074569725
0000c0 c5 f3 71 3d 4d 15 9e bd f6 29 9c 3c f2 39 2e 3e
       0.059070367 -0.077189066 0.019062977 0.17014292
0000d0 48 bc 88 3d 89 90 46 bd cd d3 67 3d e1 88 f2 bc
       0.06676537 -0.048477683 0.056598473 -0.029606285
0000e0 cb 4d 32 3e 7e 99 8c 3d 8b 92 00 be ba 69 e5 bd
       0.17412488 0.06865214 -0.12555902 -0.11201806
0000f0 8e 7f ee 3d b0 47 38 3c 04 cb b7 3d b9 83 1c be
       0.11645423 0.01124756 0.08974269 -0.15284623

layers.0.conv.weight f4 [32, 32, 3]
000000 bd 58 8f bd 6a 88 cd 3d 64 90 a5 3d 27 87 2f bd
       -0.06999347 0.100357845 0.08084181 -0.0428535
000010 e2 c4 6c 3c ee d6 5b bd 70 36 a7 3d cd 13 44 bd
       0.014451237 -0.05367177 0.0816468 -0.047870446
000020 61 9c d4 bb e2 05 89 bd fa d7 71 3c c6 be 6b bd
       -0.0064883684 -0.06690575 0.0147609655 -0.057554983
000030 42 57 a6 3b 27 13 6c 3d 7a 2a 26 3d 6e d2 bf bc
       0.00507632 0.057635453 0.040567853 -0.02341577
000040 e5 3c fa bb 46 a0 52 bd 8a 51 b7 bd b7 ec 74 3c
       -0.0076366537 -0.05142238 -0.08951099 0.014949015
000050 7d b2 98 bd 25 42 f3 bc 18 dd 3b 3d a6 6e a4 bd
       -0.07455919 -0.029694626 0.04586515 -0.08028917
000060 56 6d bd bd 3f 2b c9 3c 5e ba ac 3c eb 01 c7 bc
       -0.0924937 0.024556754 0.02108496 -0.024292907
000070 ee 8c 0f 3c bd 3b e2 b9 f8 c2 59 bc 34 1a 00 bd
       0.008761628 -0.00043150588 -0.013291113 -0.03127499
000080 17 50 83 bd b4 00 7f 3d 02 2b c1 3d 2c 28 69 3d
       -0.0641176 0.06225653 0.09432031 0.056923077
000090 c1 eb ba 3c a1 56 50 bd 51 6d 21 bd 32 13 98 3c
       0.022817494 -0.050863866 -0.039410893 0.01856384
0000a0 c3 ec ba bd 25 c3 cb 3d e8 09 34 bc f1 ba 93 bd
       -0.0912719 0.0994933 -0.01098869 -0.072133906
0000b0 d1 67 2f 3d 80 b1 92 bd a2 62 fa bc 3c 13 0b 3d
       0.042823616 -0.07162762 -0.03056461 0.03395389
0000c0 b9 fc 95 bd f4 05 af 3d aa 4e 82 3d 97 b0 21 3d
       -0.07323594 0.08546057 0.0636266 0.03947505
0000d0 f0 8a 1d 3d 45 8f 16 bd 3e 91 78 bd ff 52 3d 3d
       0.03846258 -0.036757726 -0.06068539 0.04622173
0000e0 97 99 77 3d 1c c8 b3 3d 41 eb 8f 3d 32 e9 fc 3c
       0.06044921 0.08778402 0.07027293 0.030872915
0000f0 d7 52 80 3d aa ec c3 bd e2 16 c3 bd 3f e7 92 bd
       0.062658004 -0.095666245 -0.09525849 -0.07173013
000100 df 0f 88 bd 04 26 99 3d ee 34 b2 bc 3b 98 19 3b
       -0.06643652 0.07477954 -0.021753754 0.0023436684
000110 70 3c 15 bc fd 59 9d 3d 11 0e c6 bc 17 b7 31 bd
       -0.009108648 0.076831795 -0.02417663 -0.0433875
000120 9b 2c 9e bd a6 fb c3 bc 4e 9d 7f ba 71 03 96 3d
       -0.077233516 -0.023923706 -0.0009750918 0.07324875
000130 48 06 0c 3d 0e bb d2 bc cc 68 93 bd 3b f3 bc bd
       0.034185678 -0.02572396 -0.07197723 -0.0922608
000140 d0 30 11 3d 2f 24 aa bd 42 dd 8d 3c 88 41 73 3c
       0.03544694 -0.08307683 0.017317418 0.014847167
000150 64 e9 cf bd 21 1c 5b 3d 75 35 96 3d 2e 20 99 3d
       -0.101519376 0.053493623 0.07334415 0.07476841
000160 15 33 f7 3c f2 fd 0c bd 53 4f ce 3d fe a7 b5 bd
       0.030175725 -0.03442187 0.10073724 -0.088699326
000170 c3 b7 d2 3c cb b7 6c 3d 3e 9f 49 3b 8b e2 ac bd
       0.02572239 0.057792466 0.0030765082 -0.08441647
000180 26 fb 85 bd 09 e9 83 3d 66 8b 9b 3d 0d a2 cd bd
       -0.065420434 0.06440932 0.075949475 -0.10040674
000190 59 89 09 3d e2 c4 74 3d 88 ce 01 bd 72 dc 5e 3c
       0.03357825 0.059758075 -0.031691104 0.013602363
0001a0 bb 95 0c bd a1 df 13 bd 62 c0 d4 bc 57 8e c8 3d
       -0.03432248 -0.03610194 -0.025970642 0.09792774
0001b0 1c dd 4b bd 68 77 82 bb 75 5e e5 3b 59 47 46 3c
       -0.049771413 -0.0039815195 0.0069997855 0.012101972
0001c0 25 57 46 bd b3 32 64 bb db f5 b1 bd f3 57 53 bd
       -0.04842295 -0.0034820258 -0.08689471 -0.051597547
0001d0 71 59 26 bd 59 a2 85 3d 1e 4b ce 3d 6b 4b 06 3d
       -0.04061264 0.06525106 0.10072921 0.032786768
0001e0 3e a4 72 3d 47 16 7f bc eb 9e 22 bc 70 da b7 bb
       0.059238665 -0.015569276 -0.009925584 -0.0056107566
0001f0 64 47 29 3d 59 6d a4 bd 27 7b ab 3d da 92 06 3d
       0.04132785 -0.08028669 0.08373099 0.032854892
000200 ff 4e f6 bc 06 a5 91 bd 5e 41 93 bc 89 1f 52 bd
       -0.030066965 -0.07111554 -0.017975505 -0.051299606
000210 e2 1b 54 bb 34 ba 9c 3d 03 dd 4f bd a8 41 a2 3d
       -0.0032365252 0.07652703 -0.050747883 0.07922679
000220 31 bd c9 3d cf 78 a9 bd ca 98 96 3d 5b fa 81 3c
       0.098505385 -0.082749955 0.07353361 0.01586645
000230 3c d3 19 3d 43 7c 71 3d 3f bd 80 3d 8a 1e 9c bc
       0.037554964 0.058956396 0.06286096 -0.01905753
000240 05 a7 58 bd 8d e1 02 bc fe 08 89 bd a1 06 38 3d
       -0.052893657 -0.007988346 -0.06691168 0.044928197
000250 9e e1 3d 3c 95 41 91 bd 1c 01 a0 3d e9 56 11 3d
       0.011589436 -0.07092587 0.078127116 0.035483275
000260 ce 3a 98 bd 38 1b 79 3d b2 be 0b bc a5 87 62 bd
       -0.07433091 0.060816973 -0.008529352 -0.055305142
000270 97 22 c0 bd c3 cb a6 3c 21 79 62 3d e8 91 c8 3d
       -0.093815975 0.020360833 0.0552913 0.097934544
000280 e0 6f 6c bd cb 5f 2b bb 42 4d 38 bc 97 56 68 bd
       -0.05772388 -0.0026149626 -0.011248888 -0.056723204
000290 8b 58 fe 3c f7 24 5d 3c 19 19 50 3d 64 58 79 bd
       0.03104808 0.013497583 0.050805185 -0.06087531
0002a0 2f d5 c3 bd d6 a2 0a bd 7b 5f b8 3d e2 5e 97 bd
       -0.09562146 -0.0338467 0.090025865 -0.07391144
0002b0 e2 eb a2 3d 3c 5e c4 3d 8b 85 98 bd 70 8e 73 bd
       0.07955147 0.09588286 -0.07447346 -0.05946201
0002c0 6e 59 83 3d 0e 22 f0 bc 91 d1 b9 3d 1f c3 97 bd
       0.06413542 -0.029313114 0.09073175 -0.07410263
0002d0 19 cd ac 3c 2b 24 8d 3d 37 fc 54 3b 9d ce 1a bd
       0.021093892 0.06891664 0.0032498965 -0.037794698
0002e0 7a 35 b3 bd 8b d2 82 bd 3b 74 4b bd 77 2d 53 bb
       -0.08750434 -0.06387814 -0.049671393 -0.0032223144
0002f0 68 c6 a8 bd 7c b1 c9 bc f4 14 59 3d c8 fb 9b bd
       -0.08240968 -0.024620764 0.052998498 -0.07616383
000300 3f 25 a7 3c 1b a8 ba bd 69 de 35 bd 54 89 67 3d
       0.020403503 -0.09114095 -0.04440156 0.05652745
000310 d3 c7 97 3d d7 7b cd bd 83 fe c4 3d 5c 70 ac bd
       0.0741116 -0.10033386 0.09618857 -0.08419868
000320 85 1e ff 3c 25 42 ba bd c9 3a cc bd fb bb 6b bc
       0.031142483 -0.09094647 -0.0997215 -0.01438808
000330 a4 32 93 bd cd af b0 3d 9c 39 ef 3c 2c 70 74 3d
       -0.07187393 0.08627281 0.029202275 0.059677288
000340 f7 c3 80 3d 2b 6b b1 bd 25 15 43 3d 88 6c a4 bd
       0.06287377 -0.08663019 0.047627587 -0.08028513
000350 01 bf a9 3d de b7 b4 bd 61 07 a2 bd 74 32 94 3d
       0.08288384 -0.088241324 -0.07911564 0.07236186
000360 7a cd 40 bc 68 de 29 3b a5 90 05 3d 2a af af bd
       -0.011767739 0.0025919918 0.032608647 -0.08578332
000370 57 b8 c5 bd 71 2e 96 3d 84 72 28 3d b0 0c 22 3d
       -0.09654301 0.07333077 0.041124836 0.03956288
000380 00 19 c4 3d 89 ec 90 3d 20 2d 7b 3d 79 00 56 3d
       0.09575081 0.070763655 0.06132233 0.052246545
000390 c8 2f 9e bd 4f e0 44 bd a3 7c 5d bd de 79 74 3d
       -0.07723957 -0.04806548 -0.05407394 0.059686534
0003a0 04 37 15 bd 59 23 a1 bc 1d e4 b9 3d fe 3e 02 3d
       -0.03642942 -0.019670175 0.09076712 0.031798355
0003b0 3a ef 95 3c 19 7f 8b 3d 39 b5 65 bd fc 82 04 3a
       0.018302549 0.06811351 -0.05608103 0.00050549186
0003c0 08 40 fb 3c 80 e0 c4 3c 5c 5d a3 3d cc 6a 2d bd
       0.03067018 0.024032831 0.07976791 -0.042338178
0003d0 87 42 f4 bc 81 bd 8e 3d 34 5d 58 bd d3 10 4e 3b
       -0.029816879 0.06969739 -0.05282326 0.0031443133
0003e0 9a f6 59 3d 32 4a a5 bc e0 38 28 bd 14 5c 3d bd
       0.053213693 -0.02017698 -0.041069865 -0.04623039
0003f0 17 bd 94 3d 8d 96 c3 3d d3 01 df 3c be 37 f1 bc
       0.072626285 0.095502 0.02722255 -0.029445525

layers.0.conv.bias f4 [32]
000000 e9 a2 92 bd f7 47 0e 3c 2d ae bd 3b e8 82 17 3c
       -0.07159979 0.00868415 0.0057885856 0.009247519
000010 0d 75 89 bd 9a 4b 49 bc ff 6c 94 bc 29 2f b4 39
       -0.06711779 -0.012286091 -0.01811838 0.00034367412
000020 39 e8 59 bc e3 97 6b bd f1 0c 7e bd 70 25 79 bd
       -0.013299995 -0.057517897 -0.06202406 -0.06082672
000030 e5 19 83 bd 94 f1 5c 3d 02 87 5d bd b8 65 80 3d
       -0.06401423 0.053941324 -0.05408383 0.06269401
000040 7a 6d 03 3d a6 ac a8 3d cb e6 6b 3d fe 4e 2a bd
       0.032086827 0.08236055 0.05759315 -0.04157924
000050 f3 54 83 3d 78 29 74 bd e7 6a a7 bc a7 b7 39 bd
       0.06412687 -0.05960986 -0.020436717 -0.04534116
000060 9b 03 0f 3c 5d 59 ab 3b bb fb cd 3d 6b 53 f4 3b
       0.008728887 0.005229159 0.100577794 0.0074562333
000070 96 22 32 3d 55 8e d0 3d 3e 4c 5f bd 68 7b 97 3d
       0.043490015 0.10183398 -0.05451607 0.07396585

layers.0.sequence1.0.weight f4 [64]
000000 00 00 80 3f 00 00 80 3f 00 00 80 3f 00 00 80 3f
       1.0 1.0 1.0 1.0
000010 00 00 80 3f 00 00 80 3f 00 00 80 3f 00 00 80 3f
       1.0 1.0 1.0 1.0
000020 00 00 80 3f 00 00 80 3f 00 00 80 3f 00 00 80 3f
       1.0 1.0 1.0 1.0
000030 00 00 80 3f 00 00 80 3f 00 00 80 3f 00 00 80 3f
       1.0 1.0 1.0 1.0
000040 00 00 80 3f 00 00 80 3f 00 00 80 3f 00 00 80 3f
       1.0 1.0 1.0 1.0
000050 00 00 80 3f 00 00 80 3f 00 00 80 3f 00 00 80 3f
       1.0 1.0 1.0 1.0
000060 00 00 80 3f 00 00 80 3f 00 00 80 3f 00 00 80 3f
       1.0 1.0 1.0 1.0
000070 00 00 80 3f 00 00 80 3f 00 00 80 3f 00 00 80 3f
       1.0 1.0 1.0 1.0
000080 00 00 80 3f 00 00 80 3f 00 00 80 3f 00 00 80 3f
       1.0 1.0 1.0 1.0
000090 00 00 80 3f 00 00 80 3f 00 00 80 3f 00 00 80 3f
       1.0 1.0 1.0 1.0
0000a0 00 00 80 3f 00 00 80 3f 00 00 80 3f 00 00 80 3f
       1.0 1.0 1.0 1.0
0000b0 00 00 80 3f 00 00 80 3f 00 00 80 3f 00 00 80 3f
       1.0 1.0 1.0 1.0
0000c0 00 00 80 3f 00 00 80 3f 00 00 80 3f 00 00 80 3f
       1.0 1.0 1.0 1.0
0000d0 00 00 80 3f 00 00 80 3f 00 00 80 3f 00 00 80 3f
       1.0 1.0 1.0 1.0
0000e0 00 00 80 3f 00 00 80 3f 00 00 80 3f 00 00 80 3f
       1.0 1.0 1.0 1.0
0000f0 00 00 80 3f 00 00 80 3f 00 00 80 3f 00 00 80 3f
       1.0 1.0 1.0 1.0

layers.0.sequence1.0.bias f4 [64]
000000 00 00 00 00 00 00 00 00 00 00 00 00 00 00 00 00
       0.0 0.0 0.0 0.0
000010 00 00 00 00 00 00 00 00 00 00 00 00 00 00 00 00
       0.0 0.0 0.0 0.0
000020 00 00 00 00 00 00 00 00 00 00 00 00 00 00 00 00
       0.0 0.0 0.0 0.0
000030 00 00 00 00 00 00 00 00 00 00 00 00 00 00 00 00
       0.0 0.0 0.0 0.0
000040 00 00 00 00 00 00 00 00 00 00 00 00 00 00 00 00
       0.0 0.0 0.0 0.0
000050 00 00 00 00 00 00 00 00 00 00 00 00 00 00 00 00
       0.0 0.0 0.0 0.0
000060 00 00 00 00 00 00 00 00 00 00 00 00 00 00 00 00
       0.0 0.0 0.0 0.0
000070 00 00 00 00 00 00 00 00 00 00 00 00 00 00 00 00
       0.0 0.0 0.0 0.0
000080 00 00 00 00 00 00 00 00 00 00 00 00 00 00 00 00
       0.0 0.0 0.0 0.0
000090 00 00 00 00 00 00 00 00 00 00 00 00 00 00 00 00
       0.0 0.0 0.0 0.0
0000a0 00 00 00 00 00 00 00 00 00 00 00 00 00 00 00 00
       0.0 0.0 0.0 0.0
0000b0 00 00 00 00 00 00 00 00 00 00 00 00 00 00 00 00
       0.0 0.0 0.0 0.0
0000c0 00 00 00 00 00 00 00 00 00 00 00 00 00 00 00 00
       0.0 0.0 0.0 0.0
0000d0 00 00 00 00 00 00 00 00 00 00 00 00 00 00 00 00
       0.0 0.0 0.0 0.0
0000e0 00 00 00 00 00 00 00 00 00 00 00 00 00 00 00 00
       0.0 0.0 0.0 0.0
0000f0 00 00 00 00 00 00 00 00 00 00 00 00 00 00 00 00
       0.0 0.0 0.0 0.0

layers.0.sequence1.2.conv.weight f4 [32, 64, 1]
000000 a6 46 b3 3d f0 42 ab bc a8 a8 bf 3d 30 b1 dd 3d
       0.087537095 -0.020905942 0.093583405 0.108248115
000010 40 ef ff 3d 24 30 95 bd 5c 4b c3 3d e4 22 05 bd
       0.12496805 -0.07284573 0.09535858 -0.032503977
000020 ba 86 87 bd ec c1 65 bd 26 b5 b1 3d a2 e0 fb 3d
       -0.06617494 -0.05609314 0.086771294 0.12298705
000030 2a 96 bd bd 80 06 c1 3d 9c 93 3f bd 8c d9 0c 3d
       -0.09257157 0.09425068 -0.04677163 0.034387156
000040 18 54 7d 3d 60 35 df bb f6 97 92 bd cc 7c be bd
       0.061847776 -0.0068117827 -0.071578905 -0.09301147
000050 18 e8 66 3d 6a 64 a2 bd 38 25 b0 3d 6e 58 c2 3d
       0.056373686 -0.07929309 0.08600849 0.09489523
000060 ee 0c df 3d 2c 11 4c 3d b0 ae 90 bd ba 7f b0 bd
       0.10891138 0.049821064 -0.07064569 -0.08618112
000070 d6 1f a2 3d 32 8f e4 3d 00 42 ce bb 44 78 23 3d
       0.079162285 0.11160125 -0.006294489 0.039909616
000080 96 b9 9d 3d c6 90 c6 bd 40 9d 64 bc aa 2c 91 bd
       0.07701413 -0.09695582 -0.013953507 -0.07088597
000090 1c ca c6 3d c0 3e 8d 3b da 20 dd 3d 14 a2 00 bd
       0.09706518 0.004310459 0.107972816 -0.03140457
0000a0 ca a1 c2 3d 5c b6 16 3d c8 65 bf 3c 48 40 a4 3c
       0.09503515 0.036795005 0.023363963 0.020050183
0000b0 80 1e 20 bb 08 8c e4 bc 88 26 09 bd 58 f7 9d bc
       -0.0024432242 -0.027898803 -0.033484012 -0.019282982
0000c0 a8 36 f8 bd 2a 71 da bd 68 1a b1 bc 1a 76 fe 3d
       -0.121198 -0.106661156 -0.021619037 0.1242487
0000d0 48 e8 b0 bc c4 dc 0a 3d 9e 95 d1 bd 60 e9 fd bc
       -0.021595135 0.033901945 -0.10233615 -0.030995071
0000e0 40 f3 83 3c 74 04 24 3d 82 79 b3 3d c8 f7 08 3d
       0.016107202 0.04004331 0.0876341 0.033439428
0000f0 74 1f e8 3d 30 43 e5 3d 9a 88 fb 3d 00 b0 f3 39
       0.11334124 0.111944556 0.12281914 0.00046479702
000100 2c c3 3f 3d 44 bc fa 3d 2a cf cb 3d 38 78 70 3d
       0.04681699 0.1224294 0.09951623 0.0587084
000110 44 78 bf 3d f8 6c 97 3d 2c 92 41 3d 04 b2 56 bd
       0.09349111 0.07393831 0.04725854 -0.052415863
000120 38 0e b8 bc bc 7b de bd f6 16 bd 3d 68 68 93 bd
       -0.022467718 -0.10863444 0.09232895 -0.07197648
000130 94 5b 2a bd 78 8e e6 3c a4 f6 08 bd 26 b0 ea bd
       -0.041591242 0.028144106 -0.03343834 -0.11459379
000140 40 de 71 bc 88 e4 d9 bd aa 98 c2 3d 4c 28 53 bd
       -0.014762461 -0.10639292 0.095017746 -0.051552102
000150 86 e5 e4 bd 48 c4 41 3d ba d6 91 3d cc 02 eb bd
       -0.111765906 0.04730633 0.07121034 -0.11475143
000160 04 a0 d3 3d 7e 67 c7 bd 64 73 65 bd 1a 1d 99 bd
       0.10333255 -0.097365364 -0.05601825 -0.07476254
000170 20 7d c7 bc 20 e7 ea bc 46 3b b4 bd 80 b1 86 3c
       -0.024351656 -0.028674662 -0.08800368 0.01644206
000180 50 18 2f bd 00 98 5f 3d 08 9d dc bc dc 5c d3 bd
       -0.042747796 0.054588318 -0.026930347 -0.10320446
000190 0c f8 9e bd cc 5d d0 3d a0 51 7c bc 84 aa 48 3d
       -0.07762155 0.1017414 -0.01540032 0.04899074
0001a0 92 86 99 bd 60 77 2b bc b8 fb c0 3d 60 72 a5 bc
       -0.074963704 -0.010465473 0.094230115 -0.02019614
0001b0 48 6e b4 bc e0 15 af bc 48 f7 c6 3c 7c 79 11 3d
       -0.022025242 -0.021372736 0.024287835 0.035516247
0001c0 e0 1d 06 3c 90 f1 85 3d 8e 8e e0 3d ac 95 c3 bd
       0.008185834 0.06540215 0.1096469 -0.09550032
0001d0 50 37 1d bd fc 12 fc bd e4 8a 12 3d 00 48 3e bd
       -0.03838283 -0.123083085 0.035776988 -0.046455383
0001e0 2c d9 b5 3d 02 63 b7 bd 44 7a 7e 3d 26 6c ad bd
       0.08879313 -0.08954431 0.06212832 -0.08467893
0001f0 b0 0a 6f 3c 70 8a fe 3c 98 22 cc 3d ea 98 c2 3d
       0.01458995 0.031071872 0.09967536 0.09501822
000200 e2 c4 9a bd a4 42 27 3d c8 71 0a bd ca 34 fc 3d
       -0.07557084 0.040835038 -0.033799917 0.12314756
000210 30 6a 56 bd 88 1a 39 3d d4 87 37 3d 38 df fd 3c
       -0.052347362 0.045191318 0.04480727 0.030990228
000220 e6 79 a1 bd 80 1c 80 3b 90 a3 f2 bd c0 64 cb 3d
       -0.078845784 0.0039096475 -0.11847603 0.09931326
000230 d0 82 51 3d 72 19 e5 3d 06 01 a3 bd e8 9b ca 3d
       0.051150143 0.11186494 -0.079591796 0.09893018
000240 e4 cb e2 bd ec d0 10 3d 28 75 f3 bc e0 2e d2 3c
       -0.11074045 0.035355493 -0.02971895 0.025657117
000250 4c 31 b6 bd 5c ff a0 bd e0 d9 0b 3d 40 e1 a3 bd
       -0.088961214 -0.07861206 0.03414333 -0.080019474
000260 d4 98 d7 bd da 35 f4 3d b8 e7 f0 3c 48 75 2d 3d
       -0.105271965 0.11924334 0.029407367 0.042348176
000270 a0 28 96 bd 44 cb eb bd f4 b8 aa bd b8 68 db 3c
       -0.07331967 -0.11513379 -0.08336058 0.026783332
000280 9e 05 be bd 4a e0 bf 3d 50 35 b0 bd 9a 30 e6 3d
       -0.09278415 0.093689516 -0.086039186 0.11239739
000290 fc ea c6 3d 3e e7 e3 bd 78 d8 f1 bd 30 04 9a 3d
       0.097127885 -0.1112809 -0.11808866 0.0752033
0002a0 04 55 bd bd 6c a4 98 3d c8 20 9b 3c 20 f6 b4 bb
       -0.09244731 0.07453236 0.01893653 -0.0055225044
0002b0 18 ab 10 3d a4 7a 34 3d 54 6c a3 bd 12 e7 e4 3d
       0.035319418 0.04406227 -0.07979646 0.11176886
0002c0 08 cb ad 3d a2 e6 c3 bd e8 f4 65 3d b0 a9 a7 3d
       0.08485991 -0.09565474 0.056141764 0.08186662
0002d0 ae 63 84 3d 3e a9 b9 3d 02 8d cc 3d 7c bd 6f bd
       0.06464325 0.090654835 0.099878326 -0.058530316
0002e0 c6 ad f0 3d 12 36 d9 bd c0 a6 c7 bc 9c 30 4d 3d
       0.11751895 -0.10606016 -0.024371505 0.050095186
0002f0 50 73 cc 3d e0 95 56 bc 80 2b 00 bb 50 ea df bd
       0.099829316 -0.013097256 -0.0019557178 -0.109333634
000300 60 55 70 3d f0 d2 1c bc 90 3b f9 bc 6c 80 59 bd
       0.05867517 -0.009571776 -0.03042391 -0.05310099
000310 dc 06 19 3d 14 a9 c9 bd b4 bb cd 3d e8 3b bc bc
       0.037360057 -0.09846702 0.10045567 -0.022977784
000320 42 49 ef bd 40 0f c4 3d 00 58 e7 3b ba 52 df 3d
       -0.11683895 0.09573221 0.007060051 0.10904451
000330 40 14 39 bd c0 67 48 bc 40 13 03 bd 1a 55 bb bd
       -0.045185328 -0.012231767 -0.03200078 -0.09147091
000340 34 f8 66 3d 80 c9 2a bd 40 1a 2c 3c 2c 1d 0d bd
       0.05638905 -0.04169607 0.010504305 -0.03445165
000350 58 84 49 bd c0 ff dc 3c 62 c4 b4 bd 7c d3 a5 bd
       -0.04919848 0.02697742 -0.088265195 -0.08096978
000360 ae 22 e3 bd 0a 00 86 3d c8 8c f6 bd 1e b9 89 bd
       -0.11090599 0.06542976 -0.12038571 -0.067247614
000370 7c 0d 76 bd f8 b8 3f 3d 70 78 f6 3d 3e 00 dc bd
       -0.060071453 0.04680726 0.120346904 -0.10742234
000380 28 ac 6e 3d 0c 3e e8 3d a0 c7 07 3d 00 a6 b2 b9
       0.05826965 0.113399595 0.03314936 -0.00034074485
000390 38 11 ae 3d a2 dd 9a bd 00 83 a3 bb e8 40 98 bc
       0.08499378 -0.07561804 -0.0049899817 -0.018585637
0003a0 6c f9 0a 3d dc 08 38 3d 18 a2 7c 3d 90 bb 1a bd
       0.033929273 0.044930324 0.061678022 -0.03777653
0003b0 70 4f ea bd a4 e7 cf 3d 14 22 5c 3d 12 53 e3 3d
       -0.11440933 0.10151604 0.053743437 0.11099829
0003c0 b0 14 51 3d 20 95 d6 3d 30 28 60 bd f2 3f 91 bd
       0.05104512 0.10477662 -0.054725826 -0.07092275
0003d0 78 20 e9 bc 30 8b 5c bc 40 a2 87 bb c0 47 f4 3d
       -0.028457865 -0.013460919 -0.0041392148 0.11927748
0003e0 20 0e 8e 3c fa 4b a8 3d f8 c9 db 3d f0 fe 3d 3c
       0.01734072 0.082176164 0.10731882 0.011596426
0003f0 e8 90 8c bd 38 0a 9b bd 08 da 0c bd 36 cf b5 3d
       -0.06863576 -0.075703084 -0.03438762 0.08877413

layers.0.sequence1.2.conv.bias f4 [32]
000000 f4 ca 6b bd be c1 b6 bd 58 55 ef 3d 58 da c4 3c
       -0.057566598 -0.08923672 0.116862 0.024029896
000010 be 95 f5 bd 78 a4 a6 3d 06 0e f6 bd 00 9e 56 bc
       -0.11991452 0.08136839 -0.120143935 -0.013099194
000020 da be 9c bd cc 41 a6 3d 9c c2 3e 3d 7a 29 cd bd
       -0.076535895 0.081180185 0.046572313 -0.10017677
000030 b0 87 ba bd 24 96 74 3d 90 a9 f2 bc 00 93 15 bb
       -0.091079116 0.059713498 -0.02962187 -0.0022823215
000040 80 89 e7 ba 70 bb dc 3d 28 a6 74 3d 08 57 36 bd
       -0.001766488 0.10777938 0.05972877 -0.044516593
000050 66 b8 f0 3d 88 de f8 bd 60 6d 8d bc 46 8b a3 3d
       0.11753921 -0.121518195 -0.017264068 0.07985549
000060 a0 41 c8 bc 04 aa 13 bd 20 62 47 bd b8 80 8a 3c
       -0.024445355 -0.03605081 -0.048677564 0.016907081
000070 c0 40 53 bd b2 dd e1 3d 6c 93 60 3d 5a e7 a9 bd
       -0.051575422 0.11028613 0.054828092 -0.0829608

layers.0.sequence1.3.weight f4 [32]
000000 00 00 80 3f 00 00 80 3f 00 00 80 3f 00 00 80 3f
       1.0 1.0 1.0 1.0
000010 00 00 80 3f 00 00 80 3f 00 00 80 3f 00 00 80 3f
       1.0 1.0 1.0 1.0
000020 00 00 80 3f 00 00 80 3f 00 00 80 3f 00 00 80 3f
       1.0 1.0 1.0 1.0
000030 00 00 80 3f 00 00 80 3f 00 00 80 3f 00 00 80 3f
       1.0 1.0 1.0 1.0
000040 00 00 80 3f 00 00 80 3f 00 00 80 3f 00 00 80 3f
       1.0 1.0 1.0 1.0
000050 00 00 80 3f 00 00 80 3f 00 00 80 3f 00 00 80 3f
       1.0 1.0 1.0 1.0
000060 00 00 80 3f 00 00 80 3f 00 00 80 3f 00 00 80 3f
       1.0 1.0 1.0 1.0
000070 00 00 80 3f 00 00 80 3f 00 00 80 3f 00 00 80 3f
       1.0 1.0 1.0 1.0

layers.0.sequence1.3.bias f4 [32]
000000 00 00 00 00 00 00 00 00 00 00 00 00 00 00 00 00
       0.0 0.0 0.0 0.0
000010 00 00 00 00 00 00 00 00 00 00 00 00 00 00 00 00
       0.0 0.0 0.0 0.0
000020 00 00 00 00 00 00 00 00 00 00 00 00 00 00 00 00
       0.0 0.0 0.0 0.0
000030 00 00 00 00 00 00 00 00 00 00 00 00 00 00 00 00
       0.0 0.0 0.0 0.0
000040 00 00 00 00 00 00 00 00 00 00 00 00 00 00 00 00
       0.0 0.0 0.0 0.0
000050 00 00 00 00 00 00 00 00 00 00 00 00 00 00 00 00
       0.0 0.0 0.0 0.0
000060 00 00 00 00 00 00 00 00 00 00 00 00 00 00 00 00
       0.0 0.0 0.0 0.0
000070 00 00 00 00 00 00 00 00 00 00 00 00 00 00 00 00
       0.0 0.0 0.0 0.0

layers.0.sequence2.0.weight f4 [32]
000000 00 00 80 3f 00 00 80 3f 00 00 80 3f 00 00 80 3f
       1.0 1.0 1.0 1.0
000010 00 00 80 3f 00 00 80 3f 00 00 80 3f 00 00 80 3f
       1.0 1.0 1.0 1.0
000020 00 00 80 3f 00 00 80 3f 00 00 80 3f 00 00 80 3f
       1.0 1.0 1.0 1.0
000030 00 00 80 3f 00 00 80 3f 00 00 80 3f 00 00 80 3f
       1.0 1.0 1.0 1.0
000040 00 00 80 3f 00 00 80 3f 00 00 80 3f 00 00 80 3f
       1.0 1.0 1.0 1.0
000050 00 00 80 3f 00 00 80 3f 00 00 80 3f 00 00 80 3f
       1.0 1.0 1.0 1.0
000060 00 00 80 3f 00 00 80 3f 00 00 80 3f 00 00 80 3f
       1.0 1.0 1.0 1.0
000070 00 00 80 3f 00 00 80 3f 00 00 80 3f 00 00 80 3f
       1.0 1.0 1.0 1.0

layers.0.sequence2.0.bias f4 [32]
000000 00 00 00 00 00 00 00 00 00 00 00 00 00 00 00 00
       0.0 0.0 0.0 0.0
000010 00 00 00 00 00 00 00 00 00 00 00 00 00 00 00 00
       0.0 0.0 0.0 0.0
000020 00 00 00 00 00 00 00 00 00 00 00 00 00 00 00 00
       0.0 0.0 0.0 0.0
000030 00 00 00 00 00 00 00 00 00 00 00 00 00 00 00 00
       0.0 0.0 0.0 0.0
000040 00 00 00 00 00 00 00 00 00 00 00 00 00 00 00 00
       0.0 0.0 0.0 0.0
000050 00 00 00 00 00 00 00 00 00 00 00 00 00 00 00 00
       0.0 0.0 0.0 0.0
000060 00 00 00 00 00 00 00 00 00 00 00 00 00 00 00 00
       0.0 0.0 0.0 0.0
000070 00 00 00 00 00 00 00 00 00 00 00 00 00 00 00 00
       0.0 0.0 0.0 0.0

layers.0.sequence2.2.conv.weight f4 [64, 32, 1]
000000 8c 53 be bd 5d d3 06 be f5 4e 9b bd 66 75 cf bd
       -0.09293279 -0.13166566 -0.07583419 -0.10129814
000010 e8 0d c4 3b 32 ae c1 3d 18 1a b1 3b d8 3e ec ba
       0.005983103 0.09457053 0.005404722 -0.00180241
000020 00 73 e8 bd c0 a0 d8 3d dd 1e b0 3d 17 dd 13 3e
       -0.113500595 0.10577536 0.08599637 0.14439808
000030 5c 7c 2d bd a5 08 1f bd b7 75 56 3c 3f 6c 33 be
       -0.042354926 -0.038826603 0.013089589 -0.17521761
000040 2a 26 13 be 77 fa b6 bc 79 08 e8 bd b7 79 e9 3d
       -0.14370027 -0.022336228 -0.11329741 0.114001684
000050 17 2b bb 3d 4b de ea 3d d4 98 d6 3d 64 07 8f bd
       0.09139078 0.1146818 0.104783684 -0.069838315
000060 f8 0c 03 be 91 f5 d6 bd ce 22 56 bc a7 b0 01 3e
       -0.12797916 -0.10496057 -0.0130698215 0.12665044
000070 ef d1 11 bb 56 cb 24 3e 14 1e dc bd 30 0e f4 bd
       -0.0022250374 0.16093192 -0.107479244 -0.119167686
000080 e7 d4 32 3e 2c 91 b6 bd f1 42 18 be c9 17 d3 bd
       0.17464028 -0.08914408 -0.14869286 -0.10307271
000090 35 c2 a7 bd a7 86 4b bd 2f 3b e2 bc 6f c9 06 3e
       -0.08191339 -0.04968896 -0.027616112 0.13162778
0000a0 50 2f 12 3e 23 54 26 3d 27 63 17 3d b2 82 15 be
       0.14275861 0.040607583 0.036959793 -0.14600638
0000b0 83 db dd 3d b5 cc f2 bd f6 db 34 bd 42 b2 27 be
       0.10832884 -0.11855451 -0.044155084 -0.16376594
0000c0 f3 7c f2 bc 0b 22 eb bd 21 56 dc bd bd d4 05 bd
       -0.029600596 -0.114811026 -0.10758615 -0.032673586
0000d0 ff ee cf bb 9a 54 32 bd 84 4e f7 bd ea de 31 3d
       -0.006345629 -0.043537714 -0.120755225 0.043425478
0000e0 56 f0 f9 bd b5 b4 08 be 30 06 31 bd 02 b8 a3 3d
       -0.122040436 -0.13350184 -0.04321879 0.07994081
0000f0 0e c3 c9 3c 88 cf 01 3e 84 d5 2d be 8c 64 27 be
       0.024629142 0.12676823 -0.16975981 -0.1634695
000100 bb b1 06 bd 2f 8c e5 bd 88 0a 11 3d e2 31 d9 3c
       -0.03288434 -0.112083785 0.035410434 0.026513044
000110 94 89 06 3d a5 fe ec bd 71 3d 0f be db 86 e8 bd
       0.03284605 -0.11572007 -0.13988282 -0.11353847
000120 9c 97 bf 3d 3e f2 a8 bd 15 2b c9 3d bc 42 df bc
       0.09355089 -0.08249329 0.0982267 -0.027253501
000130 67 5f 06 3e cf 38 3e bd 11 17 a9 bd 56 d3 26 3e
       0.1312233 -0.046440896 -0.08256353 0.16291556
000140 4b d4 cb bd 52 c9 e2 3d 30 81 18 3e 7c ce 2f 3d
       -0.09952601 0.11073555 0.14893031 0.04292153
000150 98 3c 06 3c 23 31 2b 3e 0f 21 93 bc 08 eb 7b 3d
       0.008193158 0.16717963 -0.0179601 0.06150344
000160 70 67 23 be df da 34 3e 66 82 56 3d 1d ad 06 be
       -0.15957427 0.17661618 0.05237045 -0.13151975
000170 e5 d3 e4 bd e8 45 2e bd 73 0d d0 bd 74 1f 2e 3e
       -0.11173228 -0.042547137 -0.10158815 0.17004186
000180 5c f9 64 bd 4a 7e b4 bd f2 11 99 3d a5 5c 04 3e
       -0.05590187 -0.0881315 0.07474126 0.12925966
000190 8a 61 02 bd b8 b3 d8 bd fa 47 27 bc bf df 05 3e
       -0.0318313 -0.10581154 -0.010210032 0.13073634
0001a0 ed a1 b5 bd 37 0f c1 3d f0 0e 91 3d 94 2c 26 3e
       -0.088687755 0.0942673 0.07082927 0.16227943
0001b0 9a 22 85 3d ad b1 b8 bd 70 4d 55 bd 07 1c 48 bd
       0.0650074 -0.09018264 -0.052075803 -0.048854854
0001c0 da 51 07 3e 04 4d 04 3e 3e c0 32 be 97 5b d3 bd
       0.13214818 0.12920004 -0.17456147 -0.10320204
0001d0 93 8d ad bd ea f3 81 3c 9a 63 8f 3d 17 a0 9a 3d
       -0.08474269 0.015863378 0.07001419 0.07550066
0001e0 d5 84 16 bd 49 ee e9 3d 08 04 f2 3d ab d6 1f be
       -0.036747772 0.114224024 0.11817175 -0.15609233
0001f0 d5 4a 0c 3e f6 43 4c b9 b6 e0 ba 3d 6f c2 0c be
       0.13700421 -0.00019480273 0.091248915 -0.13746046
000200 e5 57 20 be 6b 46 36 3c f3 1a d6 bd cf ac 8d 3d
       -0.15658529 0.011125187 -0.10454359 0.06917726
000210 ee aa 17 3e fe d0 df 3d 2b 3c 46 3c 3e 45 2b 3e
       0.14811298 0.10928534 0.012099306 0.16725633
000220 31 bb c0 3d c9 77 90 3d 20 50 14 be 5d 5b c5 3d
       0.09410704 0.07054097 -0.1448369 0.09636567
000230 17 8c f1 3d 72 7a d8 bd 4f e4 52 3d 67 86 96 bd
       0.11794298 -0.105702296 0.051487263 -0.07349854
000240 d9 66 96 bc 97 84 1b be d4 69 ba 3d e1 39 98 3d
       -0.018359588 -0.15187298 0.09102216 0.074329145
000250 b4 f3 12 3e f7 b5 be 3c 1d 21 d2 bd 88 24 12 3d
       0.14350778 0.023280127 -0.10260222 0.03567937
000260 97 40 b3 3d 6a d1 74 bd 9f 53 77 bd 14 a1 b7 bc
       0.08752554 -0.059770025 -0.06038248 -0.022415675
000270 56 9c 0b bd b9 ce c1 3c ad 74 28 3c ca 3a c4 3d
       -0.03408464 0.023658143 0.010281724 0.095815256
000280 d8 3f f3 3d c0 fa 0c bd d3 39 ff 3d 14 12 19 3e
       0.118774116 -0.03441882 0.12462201 0.14948303
000290 8e 70 30 be 98 e9 26 3e 53 4a 2b 3e 31 f1 a4 bd
       -0.17230436 0.16300046 0.16727571 -0.08053816
0002a0 62 18 f6 3d 09 80 a1 bd 33 b5 80 bd b1 e9 0c be
       0.120163694 -0.07885749 -0.06284561 -0.13761021
0002b0 7b cd f8 bd 2e 30 ea 3c c8 19 f5 bd 3a 56 1f be
       -0.12148567 0.028587427 -0.11967808 -0.15560237
0002c0 66 e2 ac 3d f4 33 02 3c de 5a 1b 3b 5a cd e7 bd
       0.084416196 0.007946957 0.0023705284 -0.113184646
0002d0 f5 45 70 3d 32 8c 0b 3e 24 5e 04 3e 74 db 12 bc
       0.058660466 0.13627699 0.12926537 -0.0089634545
0002e0 98 0f d8 bd 68 9f 1c 3e e8 64 d9 bd 1e e7 da 3d
       -0.10549849 0.15295184 -0.106149495 0.10688613
0002f0 00 f8 ac bd a5 90 f9 3d e9 c3 0b 3e d4 76 34 be
       -0.0844574 0.12185792 0.13648953 -0.17623454
000300 d5 d4 e9 bc 95 61 cc bd 7a 72 d0 bd c5 94 28 be
       -0.028543869 -0.0997955 -0.10178085 -0.16463001
000310 e2 1d ec 3d 92 cd 74 bd 52 f3 af 3c d9 d5 71 3c
       0.11529137 -0.05976636 0.021478329 0.014760458
000320 1d fd a6 bc d2 31 a6 3d 7e f9 a1 3c 68 1b ef 3d
       -0.020384366 0.08114971 0.019772287 0.11675149
000330 4d 01 a7 bd bd cd ef bd 4b 55 20 3e a2 5d 16 3e
       -0.08154545 -0.11709163 0.15657537 0.14684156
000340 5a ad 14 be 1d 46 ea 3d f0 d5 0c be a1 89 b3 3d
       -0.14519253 0.11439154 -0.13753486 0.08766485
000350 58 e0 9f 3d 0f fc ff bd d2 56 e5 bd 81 66 36 bd
       0.07806462 -0.12499248 -0.111982 -0.04453135
000360 63 a1 03 3e 72 22 18 3d af 27 f7 3d 2a 04 2f be
       0.12854533 0.037142225 0.12068116 -0.17091432
000370 63 cf 12 bd 64 84 7f bd 48 98 e1 bd ad 8f 24 3d
       -0.03584231 -0.062382117 -0.110153735 0.040176082
000380 66 ca 93 3d f9 6b 55 3d 2f 73 95 3d 31 04 4b bd
       0.07216339 0.052104924 0.0729736 -0.049564544
000390 d3 76 9a bd a8 73 14 3e 63 c4 55 3d 10 3b 94 3b
       -0.07542195 0.14497244 0.052189242 0.0045236424
0003a0 72 92 d9 3c 22 2b 24 bd d5 8d 99 3c 24 de 07 bd
       0.026559088 -0.040080197 0.018744389 -0.033170834
0003b0 04 82 14 bd fd 17 b9 bd 2c 66 cf 3c f2 ad 96 bd
       -0.036256805 -0.090377785 0.025317274 -0.07357396
0003c0 4b 92 9e bb e8 91 cc bd 65 75 99 3c 05 6c 21 3e
       -0.004839217 -0.09988767 0.018732736 0.15763862
0003d0 38 5b 0f bd 87 dc 89 bd 2d 1c b9 3b ee f3 b1 3d
       -0.034999102 -0.067315154 0.005649111 0.08689104
0003e0 fd c1 5b 3d 2c c2 c7 bd 47 41 ed bd 39 2f 41 3d
       0.0536518 -0.09753832 -0.11584716 0.047164176
0003f0 26 8a 5b 3d 2f 30 18 be 5f 86 20 3d ec d0 f3 bd
       0.053598545 -0.1486213 0.039190646 -0.11905083

layers.0.sequence2.2.conv.bias f4 [64]
000000 92 09 b0 bd 59 c5 24 3d 9d cd b3 3d 3b c2 89 3d
       -0.085955754 0.040227268 0.08779452 0.067265
000010 ae 45 c0 bd ae 63 12 3e 88 01 ab bd 37 6e c7 bd
       -0.0938829 0.14295837 -0.083499014 -0.09737819
000020 06 9d c3 bd 57 e7 66 3d 02 a4 dc 3d bd 29 ec bd
       -0.09551434 0.056372967 0.107734695 -0.115313984
000030 12 b0 df bd 9e 82 a4 bc 3b 06 0f bd d4 1b 9e 3d
       -0.109222546 -0.020081814 -0.03491805 0.077201515
000040 23 7e 0e bc 09 f1 52 3b 25 29 31 bd af 60 3c bc
       -0.0086970655 0.0032187125 -0.04325213 -0.011497661
000050 4a 6a e9 3d cd 26 c2 bc 27 c4 af bd 1c 3b f8 3c
       0.11397226 -0.023700142 -0.08582335 0.030301623
000060 57 22 56 3d d2 aa 04 be c1 c7 ab 3d 4e cd 17 3d
       0.052278843 -0.12955788 0.083877094 0.03706103
000070 7a bf 27 3c 35 63 d4 3d 4b e2 17 3e 46 ee 22 3e
       0.010238523 0.10370485 0.14832418 0.15911207
000080 49 a8 88 3d 4b 56 b6 bd 41 e0 23 3e a4 17 e2 3d
       0.06672723 -0.08903178 0.16003515 0.11039665
000090 5e 3a b5 3d b2 a1 cc 3c 43 04 09 be e5 02 f8 bc
       0.08849023 0.024979446 -0.13380532 -0.030274818
0000a0 ec 57 29 be e3 03 79 3d 9a 1a 2c 3e ff bc 93 3d
       -0.16537446 0.060794722 0.16807023 0.072137825
0000b0 68 48 10 3e 6a 31 b8 3d b7 59 fc 3c 82 8b 1d 3e
       0.14090121 0.089938 0.030804498 0.1538525
0000c0 a9 ce 02 be 17 23 ee 3d 05 12 30 3e f7 0b 8f bd
       -0.12774147 0.116277866 0.17194374 -0.06984704
0000d0 64 69 32 be 02 41 68 3d 57 b9 cc bb 49 a7 0c 3e
       -0.17423016 0.05670262 -0.00624768 0.13735689
0000e0 68 a8 ef 3d ab 9a 0a be 12 b5 01 3d a5 a0 7d bd
       0.11702043 -0.13535564 0.031666823 -0.06192078
0000f0 fd e4 e8 3c 38 cd 84 bd de d5 7a 3c d6 29 15 be
       0.028429503 -0.06484455 0.015309779 -0.1456674
